# Ultralytics YOLO 🚀, AGPL-3.0 license
# YOLO11 object detection model with P3-P5 outputs. For Usage examples see https://docs.ultralytics.com/tasks/detect

# Parameters
ch: 6
nc: 80 # number of classes
scales: # model compound scaling constants, i.e. 'model=yolo11n.yaml' will call yolo11.yaml with scale 'n'
  # [depth, width, max_channels]
  n: [0.50, 0.25, 1024] # summary: 319 layers, 2624080 parameters, 2624064 gradients, 6.6 GFLOPs
  s: [0.50, 0.50, 1024] # summary: 319 layers, 9458752 parameters, 9458736 gradients, 21.7 GFLOPs
  m: [0.50, 1.00, 512] # summary: 409 layers, 20114688 parameters, 20114672 gradients, 68.5 GFLOPs
  l: [1.00, 1.00, 512] # summary: 631 layers, 25372160 parameters, 25372144 gradients, 87.6 GFLOPs
  x: [1.00, 1.50, 512] # summary: 631 layers, 56966176 parameters, 56966160 gradients, 196.0 GFLOPs

# YOLO11n backbone
backbone:
  # [from, repeats, module, args]
  - [-1, 1, input, []] # 0 datainput
  - [-1, 1, segData, [1]] # 1 Segment input data
  - [-2, 1, segData, [2]] # 2
  - [-2, 1, Conv, [32, 3, 2]] # 3-P1/2
  - [-2, 1, Conv, [32, 3, 2]]
  - [-2, 1, Conv, [64, 3, 2]] # 5-P2/4
  - [-2, 1, Conv, [64, 3, 2]]
  - [-2, 2, C3k2, [128, False, 0.25]] # 7
  - [-2, 2, C3k2, [128, False, 0.25]]
  - [-1, 1, Conv, [128, 3, 2]] # 9-P3/8
  - [-3, 1, Conv, [128, 3, 2]]
  - [-2, 2, C3k2, [256, False, 0.25]] # 11
  - [-2, 2, C3k2, [256, False, 0.25]]
  - [-1, 1, Conv, [256, 3, 2]] # 13-P4/16
  - [-3, 1, Conv, [256, 3, 2]]
  - [-2, 2, C3k2, [256, True]] # 15
  - [-2, 2, C3k2, [256, True]]
  - [-1, 1, Conv, [512, 3, 2]] # 17-P5/32
  - [-3, 1, Conv, [512, 3, 2]]
  - [-2, 2, C3k2, [512, True]] # 19
  - [-2, 2, C3k2, [512, True]]
  - [-2, 1, SPPF, [512, 5]] # 21
  - [-2, 1, SPPF, [512, 5]]
  - [-2, 2, C2PSA, [512]] # 23
  - [-2, 2, C2PSA, [512]] 


# YOLO11n head
head:
  - [-2, 1, nn.Upsample, [None, 2, "nearest"]]
  - [-2, 1, nn.Upsample, [None, 2, "nearest"]]
  - [[-2, 15], 1, Concat, [1]] # cat backbone P4.1
  - [[-2, 16], 1, Concat, [1]] # cat backbone P4.2
  - [-2, 2, C3k2, [512, False]] # 29
  - [-2, 2, C3k2, [512, False]]

  - [-2, 1, nn.Upsample, [None, 2, "nearest"]]
  - [-2, 1, nn.Upsample, [None, 2, "nearest"]]
  - [[-2, 11], 1, Concat, [1]] # cat backbone P3.1
  - [[-2, 12], 1, Concat, [1]] # cat backbone P3.2
  - [-2, 2, C3k2, [256, False]] # 34 (P3/8-small)
  - [-1, 2, C3k2, [256, False]]

  - [-2, 1, Conv, [256, 3, 2]]
  - [-2, 1, Conv, [256, 3, 2]]
  - [[-2, 29], 1, Concat, [1]] # cat head P4
  - [[-2, 30], 1, Concat, [1]]
  - [-2, 2, C3k2, [512, False]] # 40 (P4/16-medium)
  - [-2, 2, C3k2, [512, False]]

  - [-2, 1, Conv, [512, 3, 2]]
  - [-2, 1, Conv, [512, 3, 2]]
  - [[-2, 23], 1, Concat, [1]] # cat head P5
  - [[-2, 24], 1, Concat, [1]]
  - [-2, 2, C3k2, [1024, True]] # 46 (P5/32-large)
  - [-2, 2, C3k2, [1024, True]]

  - [[34, 35, 40, 41, 46, 47], 1, Detect, [nc]] # Detect(P3, P4, P5)
